RNN_Name_Classification_checkpoint.pth (torch_old, 695795 bytes, 10 tensors)

gru.weight_ih_l0 f4 [384, 58]
-0.25282285 0.08658235 0.013152291 -0.06749917 -0.20617923 -0.06959376 -0.16522683 -0.0696205
-0.33870363 0.21211478 0.04427885 -0.0022959532 0.08342976 0.046949152 -0.10971931 -0.54892296
-0.20237228 -0.0062927986 -0.18820882 0.24012977 0.12681475 -0.23089693 -0.3594744 -0.051337097
0.45540154 -0.5206562 -0.17018908 0.034047734 -0.03115894 -0.15877977 -0.019920785 0.17849825
0.08001746 -0.23672779 -0.086945064 -0.0067061046 0.12544096 -0.028832242 -0.34048545 -0.13756879
-0.036801968 0.40733913 -0.41796362 0.105503164 0.04198045 0.14418365 0.102199584 0.32905692
-0.5626713 0.11003678 -0.0018702206 0.10706195 -0.20755261 -0.030981317 0.1608209 -0.08011959
0.0720775 -0.09762811 -0.79842293 0.6437202 1.2314173 -0.1494969 -0.7684908 -0.57174176
-0.56260943 0.6034555 -0.43276525 -0.75067407 -0.4705507 -0.48046613 0.4081828 0.01861125
-0.14869145 0.021507522 0.52504253 -0.43069148 -0.60992044 0.044253115 0.20493297 -0.20649284
-0.06137535 -0.1301823 -0.33744478 0.042460125 0.3635765 0.1479339 0.059831675 0.1065313
0.22448328 0.64276314 0.034253772 -0.2994461 -0.11100886 -0.072094046 -0.026664862 0.091189526
-0.017700065 -0.24393982 0.13663453 0.51220536 0.31279555 0.015339591 -0.16293599 0.36923575
-0.42312598 -0.13670796 -0.20246033 0.27271736 -0.23014872 -0.24524903 -0.23471671 -0.06738488
0.1831848 -0.05567568 0.47831333 -0.2656786 0.5032131 -0.6832603 0.04141778 -0.463783
0.30483577 -0.15464544 -0.16963887 0.045875434 -0.18558931 -0.09302269 -0.26781282 0.1585592
-0.052059565 0.005449937 0.16338919 -0.030311573 0.34482658 -0.60143745 0.00625291 0.27928054
-0.5176212 -0.3626281 -0.30401325 0.2005601 -0.79882383 0.33482355 0.06872224 0.04949984
0.07860528 0.053349033 0.09508117 -0.047100775 0.09092525 0.11968886 0.11355471 -0.1020947
-0.03911259 0.119183734 -0.08537499 0.08743675 -0.2145557 -0.15214106 0.24627322 0.02519076
0.0043458072 0.061760932 -0.053939164 0.13362788 0.042875905 0.04995548 -0.12523356 -0.026269991
-0.44213453 0.012972303 -0.14305028 -0.024975397 -0.08207409 -0.013712164 0.578568 0.0060440158
0.5324925 -0.50404835 -0.0831934 0.62808084 0.027003169 -0.79116374 -0.2657512 -0.60975057
0.1655805 0.06378515 -0.37015954 -0.39770895 0.03429607 -0.113836385 0.005661081 -0.39376876
-0.25714457 0.13732469 0.37640655 -0.31958455 -0.15134668 0.08631958 0.034058608 -0.3777302
-0.16374171 0.16061021 0.14402102 0.19430646 -0.11806125 0.13279295 0.09905555 -0.02834634
0.09172321 0.005681663 0.38551545 0.04066233 -0.074217536 0.111414135 -0.03500366 -0.09914771
0.16441225 0.025905844 0.07104405 0.044466667 -0.008302314 0.07305951 0.10817835 0.18608409
-0.16857952 0.10971582 -0.5130757 0.07842959 0.039991196 0.016016454 1.1068882 0.20461272
0.17410251 0.10008298 0.02910228 -0.49763247 -0.11115701 0.081184566 -0.054534487 -0.33917254
-0.055320688 -0.8590548 -0.33790237 0.11170827 -0.067716576 0.09757209 -0.2605971 0.25122505
-0.04054422 -0.3177022 -0.44604644 -0.052826535 0.08422314 -0.30144548 -0.15196691 0.12765196
00000000: ff71 81be 1652 b13d b57c 573c 013d 8abd
00000010: a620 53be 2c87 8ebd 3931 29be 3195 8ebd
00000020: 906a adbe 9e34 593e bd5d 353d b477 16bb
00000030: 39dd aa3d c14d 403d 85b4 e0bd 3786 0cbf
00000040: ae3a 4fbe d233 cebb d0b9 40be 94e4 753e
00000050: badb 013e 3f70 6cbe 070d b8be d946 52bd
00000060: 642a e93e ba49 05bf 0c46 2ebe a375 0b3d
00000070: 0941 ffbc 2a97 22be ea30 a3bc 3fc8 363e
00000080: 32e0 a33d c568 72be 4110 b2bd e2be dbbb
00000090: 9873 003e 9831 ecbc 1c54 aebe d5de 0cbe
000000a0: a9bd 16bd c18e d03e 54ff d5be 0b12 d83d
000000b0: b1f3 2b3d e1a4 133e 044e d13d 267a a83e
000000c0: 3a0b 10bf f75a e13d 3122 f5ba 4c43 db3d
000000d0: ac88 54be 88cc fdbc 3cae 243e bd15 a4bd
000000e0: 5e9d 933d 3ff1 c7bd 7265 4cbf d9ca 243f
000000f0: 159f 9d3f b715 19be d0bb 44bf ab5d 12bf
00000100: 2c07 10bf 0f7c 1a3f 6893 ddbe 2d2c 40bf
00000110: 05ec f0be a8ff f5be 56fd d03e 9f76 983c
00000120: 9242 18be 8b30 b03c 3069 063f 9883 dcbe
00000130: bf23 1cbf c142 353d f3d9 513e dc72 53be
00000140: b864 7bbd 824e 05be 90c5 acbe abea 2d3d
00000150: b326 ba3e fc7b 173e 0f12 753d 152d da3d
00000160: f2de 653e 208c 243f af4d 0c3d 0051 99be
00000170: 9d58 e3bd 0ba6 93bd 4570 dabc 93c1 ba3d
00000180: baff 90bc 5ccb 79be ece9 0b3e e41f 033f
00000190: bd26 a03e e852 7b3c b1d8 26be 780c bd3e
000001a0: f8a3 d8be 2cfd 0bbe c351 4fbe 9ca1 8b3e
000001b0: 1bac 6bbe 9022 7bbe 9459 70be 1501 8abd
000001c0: cc94 3b3e 2f0c 64bd 7ce5 f43e 0707 88be
000001d0: 93d2 003f 26ea 2ebf b1a5 293d f774 edbe
000001e0: 6f13 9c3e 605b 1ebe d0b5 2dbe e1e7 3b3d
000001f0: 200b 3ebe ae82 bebd c31e 89be 585d 223e
00000200: 693c 55bd 6395 b23b 7f4f 273e fa4f f8bc
00000210: 1c8d b03e cef7 19bf 36e5 cc3b dcfd 8e3e
00000220: d382 04bf 64aa b9be a0a7 9bbe a05f 4d3e
00000230: b87f 4cbf fe6d ab3e 3fbe 8c3d 58c0 4a3d
00000240: cefb a03d 8484 5a3d ebb9 c23d beec 40bd
00000250: 0437 ba3d 6f1f f53d 5f8f e83d 0717 d1bd
00000260: 8634 20bd 9a16 f43d 15d9 aebd 0a12 b33d
00000270: 7db4 5bbe deca 1bbe 0c2f 7c3e da5c ce3c
00000280: 4667 8e3b 08f9 7c3d 50ef 5cbd bfd5 083e
00000290: a59e 2f3d 1e9e 4c3d 3a3d 00be 2a34 d7bc
000002a0: 755f e2be c889 543c c67b 12be 3499 ccbc
000002b0: 7616 a8bd fca8 60bc 081d 143f e10c c63b
000002c0: 6e51 083f 5009 01bf 4d61 aabd e8c9 203f
000002d0: c035 dd3c b589 4abf 8b10 88be 9d18 1cbf
000002e0: ef8d 293e caa1 823d 8d85 bdbe 82a0 cbbe
000002f0: 097a 0c3d 0d23 e9bd 9780 b93b 0f9c c9be
00000300: 74a8 83be d89e 0c3e 5cb8 c03e 96a0 a3be
00000310: a0fa 1abe 52c8 b03d 0a81 0b3d da65 c1be
00000320: e8ab 27be 0177 243e 3f7a 133e 46f8 463e
00000330: 19ca f1bd e0fa 073e a3dd ca3d 9536 e8bc
00000340: 61d9 bb3d 3e2d ba3b 4862 c53e 8b8d 263d
00000350: 5dff 97bd 182d e43d ff5f 0fbd f40d cbbd
00000360: af5b 283e 7e38 d43c 8b7f 913d ae22 363d
00000370: 6e06 08bc 39a0 953d 9c8c dd3d d48c 3e3e
00000380: 1ca0 2cbe b0b2 e03d ee58 03bf b19f a03d
00000390: cfcd 233d f034 833c 83ae 8d3f ff85 513e
000003a0: ee47 323e 4ef8 cc3d e867 ee3c afc9 febe
000003b0: 49a6 e3bd 1844 a63d 8e5f 5fbd 06a8 adbe
000003c0: f297 62bd 04eb 5bbf 8a01 adbe 4ec7 e43d
000003d0: fdae 8abd e0d3 c73d fc6c 85be 92a0 803e
000003e0: b211 26bd dda9 a2be 3360 e4be a360 58bd
000003f0: 2e7d ac3d 1057 9abe 379d 1bbe 32b7 023e

gru.weight_hh_l0 f4 [384, 128]
0.100956395 0.04185011 -0.07606953 -0.021092447 -0.040480167 0.11535181 -0.028915139 0.02186382
0.034290694 0.17100643 -0.2992416 0.36679608 -0.12150981 0.047079 0.05539916 -0.031578112
0.06670757 -0.20654382 0.09519463 0.09873619 0.032216307 -0.038463145 -0.066966236 -0.10390027
-0.011763741 0.02847876 0.13952981 0.21068655 0.30643356 0.07633724 -0.18423569 -0.24402896
-0.16516834 0.18366878 -0.026201 -0.011390659 -0.022809627 0.10070068 -0.11901786 -0.09475814
0.086952865 -0.1736072 0.031672776 -0.26251796 -0.22169133 0.12597828 -0.11065966 0.061949324
-0.053494465 -0.030504446 0.09533096 0.0427614 0.15787219 0.13753007 0.08233177 0.16173145
-0.034419116 -0.004598347 0.08728908 -0.24657308 -0.1710947 -0.0065873736 -0.055129103 0.16662036
0.05910883 0.003731749 -0.049145836 -0.037329372 0.06729639 -0.030642526 -0.0041867807 0.1723228
-0.14313555 -0.1566799 0.050957706 -0.18437985 -0.21851018 0.06454988 0.07205992 -0.14465803
0.243848 -0.06897891 0.0037163242 0.0515513 -0.21437909 0.17556916 0.0038393051 -0.025936844
0.10062736 0.107789464 -0.027140621 -0.042630874 -0.0500578 0.05164046 -0.19521952 0.061486155
-0.02475132 -0.027005238 0.01893788 0.0030844472 0.21996558 0.105042 -0.056216843 -0.14150955
0.021757575 0.2329646 -0.042829342 0.050814718 0.0036852343 -0.09650323 -0.036447752 -0.049418353
-0.10779411 -0.124464355 0.010672 0.014126558 -0.11989272 -0.017247751 0.17830074 0.086462475
0.075560726 -0.037418135 -0.15532388 0.054161526 -0.0782414 0.091681816 0.023197083 0.010777121
-0.16365185 0.124662034 -0.03091175 -0.08880677 -0.27096814 -0.12378813 0.23159124 0.014887308
-0.13943176 0.04250344 -0.09146063 -0.12009282 -0.21834743 0.2156541 0.10788223 0.058147736
-0.0155308815 0.041966703 0.10695594 0.055572733 -0.14114745 0.07256312 0.09528458 0.11578767
-0.2722712 0.032725226 -0.13805334 0.07094402 0.27103612 0.14916901 -0.16377941 -0.21276987
-0.30337286 0.20679297 0.14167468 -0.13408639 -0.12958954 -0.052184734 0.08318956 0.109464794
-0.11523935 -0.16049252 0.034688193 -0.1129359 -0.054927476 0.017472789 -0.11465223 -0.11026895
0.071630314 -0.12490712 -0.24550368 0.029089548 0.06428448 0.3188528 0.3044004 0.025668068
-0.030273773 0.08792247 0.008208068 -0.24282727 0.0017889357 -0.06703686 -0.037944157 0.1566207
0.12812702 0.0095529435 -0.18961515 -0.11268203 0.110411204 -0.2149451 0.016769072 0.0335924
0.048159376 -0.1798071 0.21458368 0.014613827 -0.057042 0.05549368 0.089114554 -0.08152525
0.19532914 -0.10217704 -0.0253866 -0.074147366 -0.18452547 -0.14543095 0.12460945 0.038846754
0.07580904 0.20733364 0.1167076 0.28623536 -0.29044163 -0.049595997 -0.144435 0.0014800482
-0.12254462 0.09210373 -0.00793339 0.01435397 0.04964887 -0.036224067 0.08522764 -0.41062787
0.09908576 0.01437804 0.31033456 0.13634187 0.108011834 0.044870656 0.05430941 0.057562605
0.084050156 0.13080733 0.18954687 -0.07023967 -0.29393622 -0.03513879 0.045936808 -0.075956024
-0.1386859 -0.115539156 0.13231048 0.15340014 0.14505418 -0.17691292 0.09838854 -0.075158365
00000000: 3ac2 ce3d 056b 2b3d 57ca 9bbd 11ca acbc
00000010: 88ce 25bd 923d ec3d 71df ecbc c11b b33c
00000020: 6674 0c3d 4f1c 2f3e 3236 99be b2cc bb3e
00000030: 23da f8bd e9d5 403d 3bea 623d 0d58 01bd
00000040: fa9d 883d 3980 53be 67f5 c23d 3336 ca3d
00000050: 3ff5 033d 888b 1dbd 9825 89bd aac9 d4bd
00000060: b5bc 40bc 4a4c e93c e7e0 0e3e 37be 573e
00000070: dce4 9c3e b356 9c3d 48a8 3cbe bae2 79be
00000080: e421 29be ab13 3c3e 7ba3 d6bc e39f 3abc
00000090: 41db babc 283c ce3d a3bf f3bd 8e10 c2bd
000000a0: 5814 b23d 16c6 31be 50bb 013d c168 86be
000000b0: 0d03 63be 7300 013e 88a1 e2bd 93be 7d3d
000000c0: 031d 5bbd 76e4 f9bc e13c c33d 9426 2f3d
000000d0: 3fa9 213e afd4 0c3e 8f9d a83d ee9c 253e
000000e0: 0ffb 0cbd bbad 96bb 9ec4 b23d a77d 7cbe
000000f0: 7333 2fbe e5da d7bb 0ecf 61bd 879e 2a3e
00000100: 1a1c 723d 5c90 743b 254d 49bd afe6 18bd
00000110: b1d2 893d 0906 fbbc 4331 89bb 6375 303e
00000120: 2092 12be b270 20be 07b9 503d 12ce 3cbe
00000130: 22c1 5fbe ba32 843d 2794 933d 3c21 14be
00000140: 4ab3 793e d144 8dbd 938d 733b 7527 533d
00000150: 3186 5bbe 67c8 333e da9c 7b3b 8179 d4bc
00000160: b815 ce3d b9c0 dc3d 0256 debc b69d 2ebd
00000170: 6809 4dbd f284 533d a0e7 47be e8d8 7b3d
00000180: 48c3 cabc 173a ddbc 9d23 9b3c 7024 4a3b
00000190: a83e 613e 4320 d73d a243 66bd e1e7 10be
000001a0: f13c b23c 468e 6e3e d26d 2fbd 1823 503d
000001b0: f983 713b 7ca3 c5bd 3d4a 15bd e66a 4abd
000001c0: 29c3 dcbd 2be7 febd 9dd9 2e3c 1473 673c
000001d0: 508a f5bd 284b 8dbc 7894 363e 3d13 b13d
000001e0: 95bf 9a3d c243 19bd 390d 1fbe 7ad8 5d3d
000001f0: 073d a0bd adc3 bb3d cf07 be3c 8692 303c
00000200: 5a94 27be cf4e ff3d a33a fdbc 53e0 b5bd
00000210: 56bc 8abe a284 fdbd 4126 6d3e e5e9 733c
00000220: 33c7 0ebe 1618 2e3d b64f bbbd 39f3 f5bd
00000230: 7896 5fbe 6ed4 5c3e 5cf1 dc3d 522c 6e3d
00000240: 3d75 7ebc 47e5 2b3d b70b db3d 3ca0 633d
00000250: f588 10be f99b 943d 9024 c33d 1622 ed3d
00000260: 2167 8bbe e30a 063d db5d 0dbe 194b 913d
00000270: 3fc5 8a3e c3bf 183e cab5 27be 58e0 59be
00000280: b053 9bbe 89c1 533e 2b13 113e f14d 09be
00000290: 1fb3 04be a9bf 55bd 4a5f aa3d 142f e03d
000002a0: 9c02 ecbd 2758 24be 3515 0e3d f04a e7bd
000002b0: a2fb 60bd 1823 8f3c cace eabd b0d4 e1bd
000002c0: eab2 923d 4ecf ffbd 5165 7bbe 344d ee3c
000002d0: 95a7 833d ad40 a33e 5fda 9b3e d745 d23c
000002e0: b400 f8bc b210 b43d 227b 063c b6a7 78be
000002f0: b97a ea3a 9f4a 89bd 556b 1bbd 2d61 203e
00000300: bb33 033e f383 1c3c 792a 42be d6c5 e6bd
00000310: 451f e23d 911a 5cbe 4b5f 893c 2f98 093d
00000320: c442 453d 5a1f 38be d3bb 5b3e d56e 6f3c
00000330: dfa4 69bd 574d 633d b181 b63d b6f6 a6bd
00000340: 5d04 483e 3242 d1bd 8ff7 cfbc 93da 97bd
00000350: 3ff4 3cbe daeb 14be 3d33 ff3d c61d 1f3d
00000360: c541 9b3d 454f 543e 6504 ef3d 718d 923e
00000370: c4b4 94be 2c25 4bbd c5e6 13be 2dfe c13a
00000380: acf8 fabd e1a0 bc3d 0dfb 01bc ea2c 6b3c
00000390: 9d5c 4b3d b05f 14bd d48b ae3d d13d d2be
000003a0: 7aed ca3d df91 6b3c 2ce4 9e3e 349d 0b3e
000003b0: 4f35 dd3d 4bca 373d 8b73 5e3d c4c6 6b3d
000003c0: 7d22 ac3d 5bf2 053e 9318 423e d1d9 8fbd
000003d0: cf7e 96be b1ed 0fbd 3c28 3c3d d58e 9bbd
000003e0: ad03 0ebe cb9f ecbd 667c 073e ed14 1d3e
000003f0: 1589 143e a928 35be ee7f c93d a1ec 99bd

gru.bias_ih_l0 f4 [384]
-0.06452832 -0.2047594 -0.0031380267 0.016051155 -0.08218714 -0.18369707 -0.12334233 -0.054995857
-0.0801169 -0.10844032 0.08435853 -0.13513221 -0.09980729 -0.21481627 -0.08250293 -0.13398235
-0.11575604 -0.08173595 0.084013194 -0.17051046 -0.18053563 -0.032152068 -0.26421538 -0.15993978
0.0011030112 -0.008167845 -0.15223527 -0.016978247 -0.12961955 -0.07184161 -0.110534966 -0.212571
-0.2194885 -0.19523758 0.0443149 -0.042543784 0.028368466 0.17595267 -0.040260326 -0.1381507
-0.12222835 -0.1078679 -0.04870753 -0.15750626 -0.02845154 -0.09304498 -0.038745575 -0.079042755
-0.11033172 -0.10921579 -0.00847248 -0.007606228 -0.021199832 0.015488444 -0.16378026 -0.09153178
-0.092484966 -0.098600164 -0.041302234 -0.02416372 0.03111711 -0.17278634 -0.0061485358 -0.0878424
-0.068122566 -0.09213881 -0.02379277 -0.065663815 -0.18617804 -0.19766834 0.013449107 -0.054851204
-0.03572561 0.00021679421 -0.20714933 -0.07169785 -0.11600441 -0.04231953 -0.092955954 -0.06728535
-0.045480836 -0.06300492 0.07528552 -0.1321311 -0.0739782 -0.08371426 -0.06678967 -0.081987016
-0.14952579 -0.14383486 -0.19356224 0.004342868 -0.0797489 -0.017043909 -0.08605933 -0.03568037
-0.018945253 -0.07158281 -0.10115376 0.08534028 -0.14313452 -0.10163761 -0.2091849 -0.0039671627
-0.046478853 -0.2516725 -0.029377311 -0.16161561 -0.09948931 -0.024002247 -0.104500815 -0.003303303
-0.13658327 -0.068262 0.041832935 -0.19370842 -0.026782064 -0.13575718 -0.14491989 -0.16874789
-0.018754518 -0.102344714 -0.010983773 -0.2059522 -0.06385555 -0.089660384 -0.046194453 0.06782769
0.30314088 -0.31165677 -0.16990283 0.29823855 -0.074838415 0.121438965 0.03248215 0.11394624
-0.06882979 -0.24473304 -0.14092524 -0.198028 -0.3020253 -0.24018544 0.14446634 0.060893394
-0.0017349855 -0.16647758 0.059135575 0.09342842 -0.3603203 0.17098802 -0.04947375 -0.06572224
0.07808093 0.16092385 0.26734564 -0.15861532 -0.28008682 0.2933556 0.08492628 -0.1964366
0.05259832 -0.10809574 -0.14075997 -0.6221304 0.040007427 -0.7139374 -0.08732654 0.19075838
-0.074484624 -0.13593835 0.018410612 -0.080663234 -0.41480318 0.011028343 0.08080588 -0.109128
-0.18896027 0.35603803 -0.20258893 -0.16457649 0.042540472 0.059465747 0.1999479 0.13505633
-0.30049452 -0.13437939 -0.1664691 -0.05527091 -0.14546959 -0.037681423 0.22741486 -0.43946353
0.0029547466 -0.17546271 0.15518959 0.041310444 0.06886348 0.26317704 -0.05231573 -0.009406714
-0.1477717 0.138805 -0.065306365 -0.054195326 -0.044790752 0.15587752 -0.086820364 0.115590505
0.15876292 0.23307322 -0.15579356 0.09280425 -0.31373835 -0.39945155 0.14976135 -0.35847086
-0.5775691 -0.1458736 -0.10555595 0.12555072 0.015628075 0.08707042 -0.13259783 -0.13379669
-0.07893595 -0.3687174 -0.10553738 -0.29274938 0.047661394 -0.11361673 0.1354808 -0.26178634
-0.20427994 -0.28911635 -0.23158221 -0.17024183 -0.006459586 -0.15608163 0.01658714 0.16574818
-0.11222124 -0.1616208 0.217711 -0.39565948 -0.009698182 0.1566763 -0.38659963 0.036125507
0.17581947 0.015295056 -0.3874945 -0.10169703 -0.018739047 -0.22582169 0.21853998 -0.37521607
00000000: 6d27 84bd 73ac 51be 5aa7 4dbb b67d 833c
00000010: bb51 a8bd 161b 3cbe e79a fcbd 5643 61bd
00000020: 5414 a4bd f515 debd 2ac4 ac3d 1960 0abe
00000030: c467 ccbd ccf8 5bbe 4cf7 a8bd ab32 09be
00000040: 8111 edbd 2e65 a7bd 1c0f ac3d 4b9a 2ebe
00000050: 55de 38be e3b1 03bd 3d47 87be 41c7 23be
00000060: ea92 903a 6dd2 05bc 90e3 1bbe f715 8bbc
00000070: fdba 04be b221 93bd 2860 e2bd 36ac 59be
00000080: 98c1 60be 5cec 47be 8a83 353d 6442 2ebd
00000090: fc64 e83c f02c 343e 03e8 24bd 6177 0dbe
000000a0: db52 fabd d8e9 dcbd 8c81 47bd 5249 21be
000000b0: 3413 e9bc 5e8e bebd aeb3 1ebd 2be1 a1bd
000000c0: 99f5 e1bd 87ac dfbd 28d0 0abc aa3d f9bb
000000d0: 45ab adbc 3ec3 7d3c 03b6 27be 0475 bbbd
000000e0: c268 bdbd e2ee c9bd 882c 29bd fef2 c5bc
000000f0: 4fe9 fe3c e7ee 30be a879 c9bb b7e6 b3bd
00000100: d883 8bbd 46b3 bcbd 0ee9 c2bc c07a 86bd
00000110: 75a5 3ebe 9269 4abe a559 5c3c a8ab 60bd
00000120: 0455 12bd 4153 6339 f41e 54be 53d6 92bd
00000130: b893 edbd 3e57 2dbd b15f bebd e7cc 89bd
00000140: 1d4a 3abd b908 81bd 4b2f 9a3d 604d 07be
00000150: e281 97bd 6272 abbd 06c9 88bd cfe8 a7bd
00000160: 4a1d 19be 7249 13be 2e35 46be 9e4e 8e3b
00000170: 6453 a3bd ab9f 8bbc e03f b0bd 9425 12bd
00000180: 1333 9bbc 029a 92bd b429 cfbd e2c6 ae3d
00000190: db91 12be 6127 d0bd 9134 56be f9fe 81bb
000001a0: 9c60 3ebd 38db 80be b0a8 f0bc 907e 25be
000001b0: 0dc1 cbbd 5ca0 c4bc 8604 d6bd 3a7c 58bb
000001c0: 7cdc 0bbe f3cc 8bbd 0359 2b3d 805b 46be
000001d0: 0f66 dbbc ee03 0bbe e165 14be 3fcc 2cbe
000001e0: 13a3 99bc 1b9a d1bd 48f5 33bc 22e5 52be
000001f0: b3c6 82bd dd9f b7bd 6536 3dbd 3ee9 8a3d
00000200: 4835 9b3e 7a91 9fbe 02fb 2dbe b9b2 983e
00000210: e244 99bd feb4 f83d 010c 053d a55c e93d
00000220: a2f6 8cbd 4c9b 7abe b54e 10be dac7 4abe
00000230: 0fa3 9abe 2cf3 75be fcee 133e 5a6b 793d
00000240: 7468 e3ba 1979 2abe 2538 723d 6657 bf3d
00000250: e77b b8be 7c17 2f3e fda4 4abd 6299 86bd
00000260: e5e8 9f3d 39c9 243e 87e1 883e 0e6c 22be
00000270: 8a67 8fbe b532 963e d4ed ad3d ad26 49be
00000280: 5671 573d 4d61 ddbd 6223 10be f043 1fbf
00000290: d4de 233d 9ac4 36bf 42d8 b2bd 2a56 433e
000002a0: 658b 98bd 6c33 0bbe dad1 963c c432 a5bd
000002b0: 1561 d4be 39b0 343c 8e7d a53d 807e dfbd
000002c0: cd7e 41be 9e4a b63e 7973 4fbe bd86 28be
000002d0: eb3e 2e3d 5b92 733d 24bf 4c3e 354c 0a3e
000002e0: 6bda 99be c09a 09be e076 2abe c063 62bd
000002f0: fbf5 14be d657 1abd 71df 683e 5d01 e1be
00000300: 6ca4 413b 7fac 33be 05ea 1e3e 2435 293d
00000310: 4c08 8d3d 24bf 863e 0549 56bd 9e1e 1abc
00000320: 7751 17be e622 0e3e 58bf 85bd ebfb 5dbd
00000330: 8276 37bd 5b9e 1f3e e0ce b1bd b7ba ec3d
00000340: bf92 223e bfaa 6e3e 5988 1fbe 2810 be3d
00000350: 50a2 a0be ea84 ccbe 0a5b 193e 7e89 b7be
00000360: 92db 13bf e45f 15be b82d d8bd 5e90 003e
00000370: 7306 803c fa51 b23d bac7 07be 0002 09be
00000380: 2ca9 a1bd 87c8 bcbe fb23 d8bd 3fe3 95be
00000390: 9838 433d e3af e8bd 7bbb 0a3e dc08 86be
000003a0: c32e 51be 0f07 94be e323 6dbe e053 2ebe
000003b0: efaa d3bb ddd3 1fbe c1e1 873c e4b9 293e
000003c0: 40d4 e5bd ec7f 25be a2ef 5e3e e193 cabe
000003d0: 20e5 1ebc c16f 203e 63f0 c5be 57f8 133d
000003e0: 050a 343e 1d98 7a3c ae65 c6be 8846 d0bd
000003f0: a182 99bc cd3d 67be f2c8 5f3e 521c c0be

gru.bias_hh_l0 f4 [384]
-0.023016218 -0.1178937 0.017137457 -0.109431855 -0.051182635 -0.11149445 -0.07203959 -0.13189755
-0.1463529 -0.033556785 0.07006575 -0.13763033 -0.06664677 -0.20613374 -0.08356107 -0.22971852
-0.16849463 -0.08722714 0.06792826 -0.17874502 -0.054776464 0.019396622 -0.16087234 -0.11289839
-0.11090029 -0.07416916 -0.1598423 -0.086848184 -0.15627657 -0.16400258 -0.1710822 -0.15374489
-0.1494414 -0.09474544 0.013344999 0.07602067 -0.04674731 0.12140412 -0.059990507 -0.12055064
-0.16130634 -0.027587222 -0.1013829 -0.13068143 0.027905148 -0.06325587 -0.0293321 -0.009999132
-0.068262115 -0.1351995 -0.08826283 0.017419156 -0.13268779 0.03468869 -0.009128939 -0.07910443
0.024298219 -0.10702158 -0.050060228 0.04127086 0.05919369 -0.16006045 -0.067412645 -0.121979624
-0.1921514 -0.0047238274 -0.09461686 0.015615357 -0.093519084 -0.07376979 -0.038410414 -0.13822782
0.031239059 0.035209894 -0.20143943 -0.18114692 -0.06731074 -0.16780384 -0.20112199 -0.070122354
-0.033924267 -0.10963365 -0.059223082 -0.10038403 -0.07247973 -0.07646371 -0.080263205 -0.10493365
-0.06825132 -0.16000624 -0.106482476 -0.061756227 -0.13113108 -0.06896743 -0.04125583 -0.09647583
-0.07842405 0.006353676 -0.15162516 -0.007513806 -0.2709582 -0.11637817 -0.20425202 -0.04123693
0.01237318 -0.18259984 0.0067552147 -0.02885724 -0.15228117 0.02728664 -0.016851116 -0.06971084
-0.17150222 -0.0011721076 -0.10469133 -0.23633161 0.013855124 -0.09737025 -0.082827695 -0.10406246
-0.1480508 -0.14859074 -0.026519606 -0.13958617 0.030878752 -0.011892553 -0.041134726 -0.017612247
0.29974738 -0.29518008 -0.1948437 0.26844645 -0.07485015 0.16237533 -0.07114673 0.08961771
-0.12852882 -0.21559615 -0.14659798 -0.11117088 -0.302467 -0.2213817 0.1940988 0.14219444
-0.07909769 -0.24851444 0.09283508 0.11836232 -0.37265256 0.11406261 -0.004911728 0.048220538
0.06720628 0.17282225 0.28259587 -0.12825097 -0.12582575 0.3515177 0.022690395 -0.17449825
-0.07160356 0.0031724998 -0.28515056 -0.60773396 0.0070861154 -0.7397995 0.031208998 0.22610407
0.0049699787 -0.08268194 0.16544251 0.05923795 -0.48691443 0.053875495 0.005636741 0.032118663
-0.14772281 0.20737751 -0.21874419 -0.11306591 -0.093945965 -0.06279609 0.19310114 0.109800495
-0.47331056 -0.16808884 -0.1408745 0.026240269 -0.23627546 -0.00069333694 0.27657914 -0.44513956
-0.104593344 -0.1306463 0.15898806 0.11229355 0.23094885 0.1349403 -0.065537825 0.018344263
-0.23109677 0.12877733 -0.060507745 0.10656239 -0.09305719 0.14160264 -0.022478638 0.07005111
0.16680463 0.13523705 -0.063949816 0.13582636 -0.33216926 -0.5374267 0.13711931 -0.26109135
-0.72230804 -0.028177993 -0.016928738 -0.022812467 -0.028061984 0.10017192 -0.09293106 -0.059882395
0.07792733 -0.4820763 -0.049163464 -0.41217688 -0.09520209 -0.08573456 -0.015569631 -0.16641623
-0.12806794 -0.3214059 -0.34729844 -0.21828708 0.07077661 -0.02662491 0.10088898 0.19199046
-0.17484161 -0.12041744 0.30698222 -0.46596667 -0.038719952 0.15398382 -0.38401866 0.039128035
0.14828354 -0.014898929 -0.3735826 -0.039060593 -0.0051969257 -0.13627619 0.10940461 -0.22449912
00000000: 828c bcbc 4172 f1bd da63 8c3c cf1d e0bd
00000010: e2a4 51bd 3457 e4bd 7e89 93bd 2710 07be
00000020: 89dd 15be d772 09bd a27e 8f3d f7ee 0cbe
00000030: 1a7e 88bd b914 53be 1122 abbd 553b 6bbe
00000040: db89 2cbe 25a4 b2bd f91d 8b3d ef08 37be
00000050: 495d 60bd aae5 9e3c b8bb 24be 4537 e7bd
00000060: b11f e3bd 00e6 97bd b3ad 23be 76dd b1bd
00000070: f706 20be 4bf0 27be 2c30 2fbe 4d6f 1dbe
00000080: 2b07 19be e609 c2bd fca4 5a3c bab0 9b3d
00000090: 1b7a 3fbd b9a2 f83d 9bb8 75bd 41e3 f6bd
000000a0: 7d2d 25be 99fe e1bc d6a1 cfbd 5ad1 05be
000000b0: 5699 e43c 4b8c 81bd df49 f0bc 66d3 23bc
000000c0: 02cd 8bbd bd71 0abe 25c3 b4bd 9eb2 8e3c
000000d0: 4fdf 07be ba15 0e3d 8c91 15bc 8101 a2bd
000000e0: 0f0d c73c 212e dbbd f40b 4dbd a20b 293d
000000f0: 1575 723d e3e6 23be a40f 8abd 74d0 f9bd
00000100: 56c3 44be 56ca 9abb 7cc6 c1bd 8ed7 7f3c
00000110: ef86 bfbd 9e14 97bd 3d54 1dbd 988b 0dbe
00000120: 0ee9 ff3c 4038 103d 2346 4ebe 947e 39be
00000130: 37da 89bd c5d4 2bbe ecf2 4dbe 4f9c 8fbd
00000140: 2cf4 0abd 9b87 e0bd e793 72bd 2496 cdbd
00000150: 4170 94bd 0199 9cbd 0961 a4bd 74e7 d6bd
00000160: 59c7 8bbd add8 23be 7c13 dabd 19f4 7cbd
00000170: 3a47 06be cc3e 8dbd e0fb 28bd 1f95 c5bd
00000180: ca9c a0bd 7f32 d03b a043 1bbe 6036 f6bb
00000190: 08bb 8abe ae57 eebd 7127 51be 0ee8 28bd
000001a0: e1b8 4a3c 74fb 3abe d95a dd3b 0566 ecbc
000001b0: 98ef 1bbe 3b88 df3c 5a0b 8abc 8fc4 8ebd
000001c0: 479e 2fbe 68a1 99ba 6868 d6bd ea00 72be
000001d0: 9a00 633c 0e6a c7bd 91a1 a9bd b31e d5bd
000001e0: a19a 17be 2c28 18be a53f d9bc adef 0ebe
000001f0: 70f5 fc3c fcd8 42bc e37c 28bd 8f47 90bc
00000200: 7d78 993e d821 97be 1b85 47be d071 893e
00000210: 094b 99bd b845 263e 60b5 91bd 7d89 b73d
00000220: 0f9d 03be 3dc5 5cbe c81d 16be 8fad e3bd
00000230: f4dc 9abe e2b1 62be d6c1 463e 6b9b 113e
00000240: f8fd a1bd 927a 7ebe 5220 be3d f267 f23d
00000250: 51cc bebe a899 e93d 90f2 a0bb e682 453d
00000260: 72a3 893d 51f8 303e 68b0 903e 3954 03be
00000270: 77d8 00be 21fa b33e 35e1 b93c abaf 32be
00000280: e3a4 92bd b7e9 4f3b 41ff 91be 7494 1bbf
00000290: a532 e83b 8063 3dbf 03aa ff3c d387 673e
000002a0: 34db a23b 2655 a9bd c369 293e 7ea3 723d
000002b0: d94c f9be 8dac 5c3d 69b4 b83b dc8e 033d
000002c0: a644 17be c55a 543e 7afe 5fbe 1a8f e7bd
000002d0: be66 c0bd 3d9b 80bd 4ebc 453e 15df e03d
000002e0: c355 f2be 7b1f 2cbe 6841 10be d5f5 d63c
000002f0: 32f2 71be 0ec1 35ba c89b 8d3e 55e9 e3be
00000300: 0935 d6bd 25c8 05be c4cd 223e 29fa e53d
00000310: db7d 6c3e ca2d 0a3e b238 86bd b546 963c
00000320: a2a4 6cbe 34de 033e f8d6 77bd 623d da3d
00000330: c594 bebd 4800 113e 1f25 b8bc f576 8f3d
00000340: d5ce 2a3e 957b 0a3e 1ff8 82bd 1116 0b3e
00000350: 1712 aabe cc94 09bf 0169 0c3e c4ad 85be
00000360: 2ee9 38bf 89d5 e6bc 23ae 8abc 36e1 babc
00000370: 3fe2 e5bc f026 cd3d a452 bebd 3e47 75bd
00000380: 5d98 9f3d b4d2 f6be a15f 49bd d908 d3be
00000390: 50f9 c2bd 9a95 afbd c417 7fbc 0469 2abe
000003a0: 3e24 03be 508f a4be 1ad1 b1be a686 5fbe
000003b0: 54f3 903d 7c1c dabc e29e ce3d 2699 443e
000003c0: ae09 33be 6b9d f6bd c62c 9d3e 2f93 eebe
000003d0: d098 1ebd efad 1d3e 189e c4be b844 203d
000003e0: a4d7 173e a31a 74bc 3846 bfbe 00fe 1fbd
000003f0: f94a aabb fc8b 0bbe 860f e03d 19e3 65be

gru.weight_ih_l1 f4 [384, 128]
-0.005531752 -0.06500874 -0.24645904 0.022103867 -0.13823037 -0.25861356 0.14199674 -0.23954377
-0.15217853 -0.014257931 -0.04629667 0.13300139 -0.088714615 0.32094473 -0.02616307 -0.116073884
0.022799581 -0.14267056 0.20842908 0.010988855 -0.09748316 0.2832472 -0.18755129 0.1633399
-0.15925105 0.07005118 -0.08883484 0.14619163 -0.038280584 -0.28486922 -0.19370489 0.023447901
0.02882092 0.15640077 0.08403708 -0.22707671 -0.11203289 0.11492812 0.15534411 -0.010525136
-0.09276906 0.13861445 0.02083599 -0.005975866 -0.022732718 0.111752845 0.037198592 0.20203874
0.3190437 0.2859828 0.18881738 0.16403042 0.23624362 -0.19847052 0.44703993 0.14373706
0.19130248 0.23669854 -0.2316238 -0.30772135 -0.49324623 -0.29624543 0.16035245 -0.13823569
0.11413932 0.3274962 -0.31836087 -0.10677544 0.18044585 -0.15477414 -0.09835493 -0.18934324
-0.10503312 -0.04848165 0.16571733 -0.17684594 0.21495014 0.12061473 0.13947761 0.18584876
0.14052087 0.10304522 0.040708985 -0.018053647 0.11786391 0.19872382 -0.061206147 0.067735285
0.042498264 0.13389042 -0.25349867 0.31953079 0.038028996 -0.16821331 0.037260454 -0.29271334
0.17656939 0.24389438 -0.059816793 0.29237777 0.15346083 -0.28783882 -0.09815494 -0.26937678
-0.27572563 0.43630773 0.12912492 0.42808256 0.15114568 0.07247842 0.0673187 -0.06486866
-0.17340142 -0.021660531 -0.09670692 -0.0021851868 -0.31931624 0.076891415 0.13892728 0.10120542
0.16767725 -0.08693106 0.14383176 -0.2100574 0.14490195 -0.2528014 0.0105754 0.5912598
-0.06281803 -0.5396568 -0.06471155 -0.020749135 -0.029908463 -0.046009105 0.06044346 -0.09450377
0.23389006 -0.07739239 -0.004539856 0.030287879 -0.09441825 0.069014326 -0.037183534 0.046280075
0.041136697 0.02143164 0.10215927 0.09489097 0.1203661 0.22061047 -0.07719633 -0.0058436114
0.04484416 -0.12908646 -0.14302735 -0.014680876 0.25286543 0.18364486 -0.11993856 -0.20147261
0.051271446 -0.18530886 -0.06125856 0.017165074 -0.24779424 0.2887077 -0.034472235 -0.17105862
-0.2389207 0.04729906 -0.20910013 0.008186133 0.11887735 -0.3119947 0.26344156 0.17940304
-0.16947551 -0.1712872 0.1915131 0.20392543 -0.072981276 -0.15787227 -0.19905266 -0.15823215
0.19603558 0.037539918 -0.038127065 0.03696783 -0.19736326 -0.10226331 0.0067168227 0.076870926
-0.06973539 0.067837134 -0.2226848 -0.09485898 -0.011377021 -0.031153379 0.257022 0.09280961
0.012554686 -0.13051827 -0.20328318 0.14566143 0.09397317 -0.064189546 0.010348783 0.36275932
-0.016164934 0.047424503 0.41430664 -0.0011492181 0.04813015 0.15445706 -0.031265885 0.054663967
-0.18306576 -0.010371592 0.12580761 -0.14751273 0.079883605 -0.0063490462 0.13963954 0.00843078
0.16375175 -0.078778364 0.08544213 0.029015759 -0.07047445 -0.09334805 -0.10948412 0.0846631
-0.19631295 0.2756349 0.039248366 0.07288206 -0.18486334 0.08089402 0.04555292 -0.051436983
-0.09119667 -0.08795798 0.043297652 0.02215213 -0.018743666 0.059632488 0.061142225 -0.05779323
0.17746006 -0.23287442 0.06738627 0.11436487 0.18688983 -0.03213827 0.049444497 -0.3164824
00000000: b343 b5bb 4d23 85bd c25f 7cbe 2b13 b53c
00000010: 438c 0dbe ff68 84be 9867 113e f64a 75be
00000020: b0d4 1bbe 199a 69bc 94a1 3dbd 8431 083e
00000030: 02b0 b5bd de52 a43e ef53 d6bc 25b8 edbd
00000040: 30c6 ba3c 3b18 12be 6f6e 553e 990a 343c
00000050: 40a5 c7bd c705 913e 720d 40be 9342 273e
00000060: b512 23be fe76 8f3d 0aef b5bd 42b3 153e
00000070: 1acc 1cbd 61da 91be 935a 46be d015 c03c
00000080: da19 ec3c 8627 203e a21b ac3d cc86 68be
00000090: 8071 e5bd 6f5f eb3d 8712 1f3e 9f71 2cbc
000000a0: b4fd bdbd f2f0 0d3e 3db0 aa3c 33d1 c3bb
000000b0: f739 babc adde e43d 8d5d 183d 3ee3 4e3e
000000c0: b259 a33e 566c 923e 5859 413e 97f7 273e
000000d0: d9e9 713e db3b 4bbe 6be2 e43e cf2f 133e
000000e0: cce4 433e 1a61 723e ca2e 6dbe a78d 9dbe
000000f0: c58a fcbe 7bad 97be 6f33 243e a88d 0dbe
00000100: e0c1 e93d 95ad a73e 3200 a3be 15ad dabd
00000110: ccc6 383e 1d7d 1ebe 4f6e c9bd 32e3 41be
00000120: 9b1b d7bd b294 46bd ceb1 293e 1a17 35be
00000130: e41b 5c3e db04 f73d 38d3 0e3e 234f 3e3e
00000140: b4e4 0f3e 5f09 d33d 77be 263d 3ee5 93bc
00000150: a262 f13d 427e 4b3e 4cb3 7abd ccb8 8a3d
00000160: a912 2e3d 921a 093e 94ca 81be 8a99 a33e
00000170: 4bc4 1b3d 1c40 2cbe 6b9e 183d 86de 95be
00000180: 9bce 343e 73bf 793e 7402 75bd 8ab2 953e
00000190: d624 1d3e 9c5f 93be 7505 c9bd c1eb 89be
000001a0: e92b 8dbe ba63 df3e 5339 043e a32d db3e
000001b0: efc5 1a3e 916f 943d 63de 893d dcd9 84bd
000001c0: 2490 31be 6d71 b1bc 470e c6bd 5a35 0fbb
000001d0: 6b7d a3be 3f79 9d3d f442 0e3e ca44 cf3d
000001e0: 96b3 2b3e e908 b2bd a248 133e 4919 57be
000001f0: 2d61 143e 2f6f 81be 7144 2d3c cd5c 173f
00000200: bda6 80bd f326 0abf 7d87 84bd 17fa a9bc
00000210: 9802 f5bc 0b74 3cbd 9093 773d 318b c1bd
00000220: e080 6f3e e77f 9ebd 13c3 94bb 491e f83c
00000230: 5b5e c1bd 6257 8d3d c34d 18bd 2d90 3d3d
00000240: f47e 283d 6891 af3c e138 d13d 3256 c23d
00000250: 8082 f63d b6e7 613e 1c19 9ebd c47b bfbb
00000260: 83ae 373d 3e2f 04be c375 12be 0f88 70bc
00000270: 9477 813e 660d 3c3e 59a2 f5bd d64e 4ebe
00000280: 0202 523d 9bc1 3dbe 41ea 7abd c59d 8c3c
00000290: c6bd 7dbe 7fd1 933e c232 0dbd fe29 2fbe
000002a0: a1a7 74be a9bc 413d 581e 56be 211f 063c
000002b0: f875 f33d c5bd 9fbe d0e1 863e 6eb5 373e
000002c0: fd8a 2dbe e965 2fbe 031c 443e d4d1 503e
000002d0: 3577 95bd 45a9 21be 76d4 4bbe 9c07 22be
000002e0: 8dbd 483e 75c3 193d 202b 1cbd 946b 173d
000002f0: 9819 4abe 6d6f d1bd cb18 dc3b 816e 9d3d
00000300: 6ed1 8ebd 32ee 8a3d 7c07 64be 6d45 c2bd
00000310: af66 3abc 5f35 ffbc 6398 833e f712 be3d
00000320: 2bb2 4d3c 95a6 05be 7729 50be 4528 153e
00000330: 0175 c03d cf75 83bd f18d 293c 97bb b93e
00000340: 536c 84bc 3240 423d 0020 d43e 5ca1 96ba
00000350: 1f24 453d fe29 1e3e a810 00bd 53e7 5f3d
00000360: 9775 3bbe 9ced 29bc b6d3 003e 940d 17be
00000370: 049a a33d a90b d0bb abfd 0e3e 4121 0a3c
00000380: 8aae 273e 8d56 a1bd 49fc ae3d 75b2 ed3c
00000390: e954 90bd 432d bfbd 3639 e0bd d963 ad3d
000003a0: 4306 49be 0520 8d3e e5c2 203d 3143 953d
000003b0: d14c 3dbe c4ab a53d b395 3a3d 96af 52bd
000003c0: 52c5 babd 5023 b4bd e158 313d 6278 b53c
000003d0: 518c 99bc 3241 743d 4570 7a3d 98b8 6cbd
000003e0: 17b8 353e a276 6ebe d001 8a3d 2138 ea3d
000003f0: 0c60 3f3e 6ba3 03bd 5086 4a3d fb09 a2be

gru.weight_hh_l1 f4 [384, 128]
-0.105099864 0.011053446 -0.072137855 -0.056063388 -0.29951397 -0.03447375 -0.05659184 0.012994575
-0.12343852 0.074545704 -0.03344968 -0.10759443 -0.028393233 0.19235343 -0.13807975 0.0072428742
-0.027909745 0.18068084 0.116958246 -0.0688374 0.0692766 0.1619527 0.15662973 0.11942306
-0.044587765 0.1364132 0.100943625 -0.24426101 -0.05916929 -0.15405473 -0.1714733 -0.069148965
0.023426067 0.014915002 0.102639414 0.31822821 -0.1538416 0.060037613 0.04878432 -0.077886544
-0.16550454 0.046902806 0.11025363 0.09517424 -0.00916039 -0.075786814 -0.13691539 -0.0042781755
-0.19101487 0.088902846 -0.06990552 -0.030050043 0.062378336 0.084924735 0.03481044 0.15729094
0.117255256 -0.120615266 0.075124465 0.0025526723 -0.019794395 0.09837727 0.097041585 -0.13993952
-0.064386725 0.10737114 0.1909087 0.1202195 0.020025944 -0.254245 -0.084921174 0.38236853
-0.09156639 -0.1778474 0.018391157 -0.20823143 -0.23174898 0.15200217 0.014377424 0.12319597
0.0074269455 0.233778 -0.035803333 -0.033413824 -0.23012055 -0.08689618 0.16296469 0.06821502
-0.086838745 -0.0025554206 -0.16520841 -0.052524857 0.18689711 0.08131735 0.14938653 0.19794735
-0.2117748 -0.13617767 -0.06482178 -0.008701049 0.110523574 0.10314224 -0.10687344 0.037435032
-0.062040012 0.13555701 0.06323459 0.14616713 -0.14752516 -0.05876164 0.10895396 0.3827113
0.038153462 -0.01872163 -0.15072714 0.1882284 0.06984593 -0.06963626 -0.04484807 0.09566436
0.18873876 0.046756458 -0.035792317 0.53285474 -0.121665746 -0.23813836 0.07137231 0.13404185
-0.1594759 0.13103302 -0.2957804 0.027841978 0.20747857 -0.18231319 0.29312408 0.20091099
-0.12510082 0.0027242887 0.06544383 0.15092526 -0.26194745 0.03478406 -0.042289153 -0.08908652
-0.049244106 -0.004986655 -0.025150513 -0.065748185 0.11822198 -0.09890658 0.044448256 -0.05819037
0.067324765 0.044419486 0.13216488 -0.009685434 0.06985102 0.12806721 -0.02010399 -0.08251887
-0.052750014 0.21824327 0.027352037 -0.08312029 0.038959846 -0.0059151067 0.005109104 -0.013737564
-0.21667024 0.0721601 0.11041277 -0.14828616 -0.104953624 0.11929532 0.016987711 -0.012772216
-0.15109693 0.04588779 -0.28507057 0.07461922 0.25864848 -0.107491985 0.016697368 0.025008269
0.04631303 -0.17430042 -0.14636344 0.106876954 0.11437467 -0.05415959 -0.15242945 0.19539678
-0.1169475 0.042954613 -0.009076992 -0.08861918 0.15445305 0.038836353 -0.13739665 0.07465867
-0.06769783 -0.028977305 -0.25984418 -0.2213054 -0.2602548 -0.06953317 0.19027533 -0.11169349
0.008590569 0.21060376 0.0025147174 -0.27121106 0.23808424 0.13710624 0.056330893 -0.064535365
0.029109254 -0.17893866 -0.029469235 0.025193853 -0.033008844 0.13864537 -0.05745892 0.19018073
0.087004505 -0.23754442 -0.044787887 0.116900474 0.28943178 0.026608974 -0.25769356 -0.03133031
0.027219819 -0.22600842 -0.26389262 -0.040117193 -0.28605598 0.093104854 0.10725043 -0.13211912
0.17070688 -0.011539009 0.117504135 -0.15258074 0.011988772 0.00095261715 0.006484874 0.011886045
-0.066354096 -0.23915526 0.05121445 -0.023699548 0.07598231 0.12375759 0.09271182 0.034837157
00000000: 993e d7bd 8319 353c 03bd 93bd b9a2 65bd
00000010: e559 99be 5934 0dbd d8cc 67bd 33e7 543c
00000020: 56cd fcbd 6bab 983d 8802 09bd 785a dcbd
00000030: ed98 e8bc 4cf8 443e c764 0dbe a255 ed3b
00000040: faa2 e4bc 6604 393e ce87 ef3d 9ffa 8cbd
00000050: e4e0 8d3d eed6 253e 8b63 203e 1494 f43d
00000060: a9a1 36bd e7af 0b3e 88bb ce3d 8f1f 7abe
00000070: 7f5b 72bd 86c0 1dbe b296 2fbe f99d 8dbd
00000080: 06e8 bf3c 0d5e 743c 9d34 d23d cfee a23e
00000090: a788 1dbe 00ea 753d 11d2 473d fb82 9fbd
000000a0: 067a 29be 281d 403d a8cc e13d b6ea c23d
000000b0: 7615 16bc 1e36 9bbd 8c33 0cbe f02f 8cbb
000000c0: 6799 43be b212 b63d a02a 8fbd 822b f6bc
000000d0: 6d80 7f3d 05ed ad3d 6495 0e3d e010 213e
000000e0: 8623 f03d 2305 f7bd dbda 993d bc4a 273b
000000f0: db27 a2bc 067a c93d bdbd c63d 4e4c 0fbe
00000100: 30dd 83bd 66e5 db3d 927d 433e a435 f63d
00000110: 730d a43c 672c 82be 27eb adbd cfc5 c33e
00000120: 2987 bbbd a11d 36be 0da9 963c 9f3a 55be
00000130: 9b4f 6dbe 75a6 1b3e 498f 6b3c 2b4e fc3d
00000140: bc5d f33b 8063 6f3e 84a6 12bd efdc 08bd
00000150: b9a4 6bbe a0f6 b1bd 37e0 263e 51b4 8b3d
00000160: 83d8 b1bd d878 27bb 652c 29be 4e24 57bd
00000170: f561 3f3e b689 a63d c8f8 183e b6b2 4a3e
00000180: 7edb 58be 2972 0bbe 48c1 84bd d88e 0ebc
00000190: 2f5a e23d 3d3c d33d 76e0 dabd 7a55 193d
000001a0: ab1d 7ebd 75cf 0a3e 2381 813d d6ac 153e
000001b0: d610 17be 0cb0 70bd 4123 df3d bcf2 c33e
000001c0: ce46 1c3d 1b5e 99bc 3758 1abe f2be 403e
000001d0: 620b 8f3d 759d 8ebd 9cb2 37bd adeb c33d
000001e0: bc44 413e b383 3f3d f79a 12bd 2b69 083f
000001f0: e42b f9bd 8bda 73be a52b 923d 4442 093e
00000200: a64d 23be 852d 063e 8770 97be dc14 e43c
00000210: 4375 543e 4fb0 3abe 5c14 963e 9cbb 4d3e
00000220: 6e1a 00be fb89 323b 6a07 863d 278c 1a3e
00000230: fa1d 86be bb79 0e3d 6437 2dbd fe72 b6bd
00000240: 30b4 49bd 1867 a3bb 7308 cebc fca6 86bd
00000250: 5e1e f23d 888f cabd 600f 363d 0759 6ebd
00000260: 91e1 893d 35f1 353d 3b56 073e a8af 1ebc
00000270: 0d0e 8f3d 0d24 033e 1fb1 a4bc a7ff a8bd
00000280: 6610 58bd 2a7b 5f3e 6111 e03c f83a aabd
00000290: 5c94 1f3d 83d3 c1bb 456a a73b 8513 61bc
000002a0: cede 5dbe adc8 933d 1720 e23d 54d8 17be
000002b0: edf1 d6bd 1b51 f43d d029 8b3c 8f42 51bc
000002c0: 27b9 1abe d6f4 3b3d c5f4 91be f6d1 983d
000002d0: 936d 843e c224 dcbd ebc8 883c 24de cc3c
000002e0: bbb2 3d3d cf7b 32be 4ce0 15be 4ee2 da3d
000002f0: 443d ea3d 72d6 5dbd 7716 1cbe 1816 483e
00000300: 2c82 efbd 2df1 2f3d aab7 14bc f97d b5bd
00000310: f128 1e3e de12 1f3d b5b1 0cbe a5e6 983d
00000320: 29a5 8abd d061 edbc 4c0a 85be e29d 62be
00000330: 1e40 85be 6867 8ebd 89d7 423e 8ebf e4bd
00000340: 75bf 0c3c 83a8 573e f5cd 243b 2ddc 8abe
00000350: 5bcc 733e 9465 0c3e 39bb 663d 1e2b 84bd
00000360: 8876 ee3c b23b 37be 7769 f1bc 5763 ce3c
00000370: 4834 07bd 0df9 0d3e 0b5a 6bbd bdbe 423e
00000380: 6b2f b23d d83e 73be 8173 37bd 8469 ef3d
00000390: 6730 943e 10fb d93c 69f0 83be 3654 00bd
000003a0: 19fc de3c c06e 67be ef1c 87be ed51 24bd
000003b0: ee75 92be c2ad be3d 1da6 db3d 3c4a 07be
000003c0: c9cd 2e3e 1d0e 3dbc 02a6 f03d 203e 1cbe
000003d0: 8e6c 443c 0eb9 793a 117f d43b b0bd 423c
000003e0: a8e4 87bd 1ee5 74be 3ec6 513d 8e25 c2bc
000003f0: 9d9c 9b3d 9f74 fd3d b2df bd3d 68b1 0e3d

gru.bias_ih_l1 f4 [384]
0.12096792 0.13892971 0.059580598 -0.045865532 -0.101799704 0.17179967 -0.0017663088 0.05947051
0.017745426 0.056292217 0.036409732 0.07276562 0.19916815 0.012765281 0.34440637 0.06110247
-0.006565827 0.08571219 0.13342683 0.009486592 -0.09478728 0.15981928 0.24098398 -0.07126146
0.050076082 -0.008727966 0.25463337 0.09294048 -0.00047461136 0.12993233 0.17821701 -0.008950585
0.17404592 0.113545 -0.116127536 -0.06606774 -0.026374739 0.13964504 0.0018825016 0.090307854
0.042927045 0.17243236 -0.08981374 0.07613139 0.17268847 -0.05534216 0.015408966 0.085322596
-0.031758405 0.31682575 0.047002763 0.22666983 0.008716174 0.13041514 -0.050596207 0.009698763
0.2834181 0.1838594 0.13831668 0.14698812 0.13474116 -0.035310663 0.14561093 0.09345527
0.15190858 -0.005602121 0.056129165 0.09233499 0.05182049 -0.06499343 0.028377527 0.021551678
0.07039341 -0.075272724 0.11296649 0.058809392 0.16803788 0.054927215 0.1477658 -0.12226459
0.03024065 -0.0077399313 0.10977036 0.07042379 0.07830253 -0.04029834 0.047382444 0.18712504
0.0992546 -0.014788503 -0.016647214 -0.12693138 0.12205752 -0.070081554 0.05357208 0.018992376
0.098780476 0.14882675 -0.0010041618 0.2872597 -0.004372648 -0.07278294 0.12278941 0.2191038
0.059363723 -0.021685993 0.018061183 0.002580034 0.08495161 0.07052593 0.08922754 0.014093123
0.21535175 0.30180624 0.07897447 -0.005209907 0.1152444 0.08217295 0.12811603 -0.016817795
0.0605286 -0.11432767 0.043556746 -0.0014915004 0.11170947 0.17288223 0.105471686 0.0038674916
0.081071235 -0.02168765 0.007277296 0.1989964 0.11821754 0.101310946 -0.036591955 0.27110618
-0.10664953 -0.027519401 0.11445131 0.057755634 0.011847791 -0.045791544 -0.16356415 -0.04400655
0.14502172 0.11762154 0.121329464 -0.111450896 0.36227104 -0.037322324 -0.15996845 0.18035659
0.1318959 0.10067332 0.2388718 0.06146862 -0.05385446 -0.2501913 -0.18454555 -0.08194787
-0.08461653 0.15552482 0.20882794 -0.11458008 -0.026972767 -0.0043464014 0.024745379 -0.024839735
0.19635828 9.420553e-05 -0.029051598 0.12811409 0.06347307 -0.15376592 0.21364504 0.031073611
0.16609976 -0.08380039 0.014379908 -0.05151482 0.18530512 -0.0029766927 -0.04299938 -0.04825849
-0.06859977 -0.08087964 -0.076277986 0.24146573 0.091440484 0.2242929 -0.033139825 0.0295071
-0.12339436 0.15746748 0.06096003 0.027361346 0.07741133 -0.039116666 0.013296069 -0.109782524
0.10554769 0.093539104 0.02894381 -0.20259021 0.00601622 -0.03261517 -0.06165914 0.0895918
0.24744272 -0.12767625 -0.04066973 -0.0071945507 -0.1491319 -0.009887184 -0.21910264 0.095213965
0.01730076 -0.04733007 0.12629087 0.22946726 0.16824713 0.023503587 0.08546019 -0.18941039
-0.023186862 -0.052888133 0.005258475 -0.11941977 -0.10596359 0.03290216 0.11540853 0.13232677
0.04926958 0.08945296 -0.05696712 -0.04720613 0.028027372 0.103792906 0.23860729 -0.015634013
-0.025940266 -0.22659826 -0.08428709 -0.010889364 -0.04140271 -0.007916256 0.014395692 0.013389157
-0.21907409 0.0564816 -0.09827345 -0.019402442 0.1187718 0.09402646 -0.065360576 0.05512113
00000000: 07be f73d 9743 0e3e c90a 743d 7fdd 3bbd
00000010: 5d7c d0bd 41ec 2f3e 7d83 e7ba 5997 733d
00000020: db5e 913c ab92 663d 5f22 153d 2406 953d
00000030: bcf2 4b3e 7825 513c 0856 b03e 9546 7a3d
00000040: 2626 d7bb df89 af3d 0ba1 083e a76d 1b3c
00000050: d51f c2bd aaa7 233e 81c4 763e 87f1 91bd
00000060: 941c 4d3d beff 0ebc 4e5f 823e 9457 be3d
00000070: 42d5 f8b9 fb0c 053e 857e 363e 79a5 12bc
00000080: 1839 323e 488a e83d 46d4 edbd 864e 87bd
00000090: d60f d8bc 1cff 0e3e 46be f63a 53f3 b83d
000000a0: 45d4 2f3d 1c92 303e 44f0 b7bd c6ea 9b3d
000000b0: 3fd5 303e 76ae 62bd e375 7c3c 9dbd ae3d
000000c0: 1a15 02bd fc36 a23e f885 403d 231c 683e
000000d0: 49ce 0e3c 8c8b 053e f83d 4fbd 8fe7 1e3c
000000e0: 2d1c 913e a345 3c3e e3a2 0d3e 0e84 163e
000000f0: 96f9 093e eaa1 10bd 081b 153e 7a65 bf3d
00000100: ec8d 1b3e ff91 b7bb b2e7 653d 211a bd3d
00000110: b941 543d 471b 85bd fd77 e83c 258d b03c
00000120: 6c2a 903d 9628 9abd fa5a e73d 1ee2 703d
00000130: 1f12 2c3e 5cfb 603d eb4f 173e db65 fabd
00000140: 3dbb f73c 409f fdbb 48cf e03d 593a 903d
00000150: 145d a03d df0f 25bd 1814 423d b59d 3f3e
00000160: ff45 cb3d 7a4b 72bc bd5f 88bc 4dfa 01be
00000170: 4bf9 f93d eb86 8fbd 666e 5b3d e695 9b3c
00000180: 6b4d ca3d 0a66 183e 149e 83ba b413 933e
00000190: 6e48 8fbb 390f 95bd 0479 fb3d bf5c 603e
000001a0: 6027 733d d3a6 b1bc 0cf5 933c ca15 293b
000001b0: 1cfb ad3d e66f 903d eebc b63d d8e6 663c
000001c0: 2b85 5c3e 5986 9a3e 5ebd a13d deb7 aabb
000001d0: 4205 ec3d 4b4a a83d d930 033e 79c5 89bc
000001e0: d6ec 773d a024 eabd 8f68 323d 737e c3ba
000001f0: efc7 e43d 0a08 313e 8a01 d83d be75 7d3b
00000200: ad08 a63d 4caa b1bc 6276 ee3b b6c5 4b3e
00000210: 0a1c f23d 1d7c cf3d 72e1 15bd 6ece 8a3e
00000220: 126b dabd 5e70 e1bc 7365 ea3d 2c91 6c3d
00000230: 3d1d 423c ea8f 3bbd 5c7d 27be 3640 34bd
00000240: 9380 143e 90e3 f03d 957b f83d 5e40 e4bd
00000250: 977b b93e 4bdf 18bd c5ce 23be 66af 383e
00000260: b80f 073e d02d ce3d cf9a 743e 85c6 7b3d
00000270: 7f96 5cbd 1319 80be 82f9 3cbe 49d4 a7bd
00000280: 6e4b adbd e641 1f3e fed6 553e f6a8 eabd
00000290: fef5 dcbc 426c 8ebb d2b6 ca3c b37c cbbc
000002a0: 2512 493e 3590 c538 9efd edbc 5730 033e
000002b0: 2bfe 813d d074 1dbe c4c5 5a3e 168e fe3c
000002c0: 0e16 2a3e 8a9f abbd b599 6b3c 3401 53bd
000002d0: a0c0 3d3e 9e14 43bb 1e20 30bd b2aa 45bd
000002e0: 097e 8cbd 3aa4 a5bd a237 9cbd cb42 773e
000002f0: 2645 bb3d 0aad 653e a0bd 07bd e0b8 f13c
00000300: 2fb6 fcbd 283f 213e 39b1 793d e724 e03c
00000310: d589 9e3d cc38 20bd c1d7 593c a9d5 e0bd
00000320: 6329 d83d 6e91 bf3d 921b ed3c cf73 4fbe
00000330: b623 c53b 7c97 05bd 4b8e 7cbd e87b b73d
00000340: a061 7d3e 90bd 02be 4e95 26bd 44c0 ebbb
00000350: 08b6 18be dbfd 21bc 715c 60be 8aff c23d
00000360: 53ba 8d3c 2ddd 41bd 6552 013e 77f9 6a3e
00000370: fa48 2c3e 988a c03c c105 af3d ccf4 41be
00000380: 60f2 bdbc 3aa1 58bd 494f ac3b 5a92 f4bd
00000390: 7003 d9bd 6ac4 063d 4f5b ec3d ab80 073e
000003a0: e6ce 493d 1d33 b73d 5b56 69bd 375b 41bd
000003b0: a999 e53c 6091 d43d 7855 743e e712 80bc
000003c0: ae80 d4bc 6009 68be b69e acbd 4e69 32bc
000003d0: e395 29bd 2fb3 01bc e9db 6b3c 325e 5b3c
000003e0: f554 60be 4059 673d 9743 c9bd dff1 9ebc
000003f0: a13e f33d f290 c03d c4db 85bd b2c6 613d

gru.bias_hh_l1 f4 [384]
0.037840817 0.14592876 -0.06181249 0.001962053 -0.09938616 0.06837936 -0.034739938 0.052482292
0.04422139 0.09628371 0.0028066593 0.073087424 0.20359081 -0.091529354 0.30579212 -0.08210147
0.04561947 0.07720464 0.064928204 -0.11781835 -0.12351644 0.04797801 0.26330683 -0.046614617
-0.04606284 0.038078874 0.24325752 0.035813197 0.015071194 0.18085533 0.18863264 0.082209304
0.108929805 0.04730879 -0.17433676 -0.03043699 -0.046120115 0.09502205 0.116904095 0.074295014
0.15022075 0.05150421 -0.013205654 0.083933815 0.07772436 -0.014563034 -0.088893116 0.13932711
-0.15873864 0.23539321 0.1701 0.20307428 0.013719654 -0.029330507 -0.017117904 -0.02669498
0.25723714 0.08988903 0.14769667 0.108319506 0.20656551 0.036100496 0.24312694 0.11601448
0.1986642 -0.04745102 0.16912249 0.0506945 0.05641934 -0.075341806 0.048850674 -0.027486376
0.07555389 -0.08721483 0.0773725 0.1622087 0.0880419 -0.05348296 0.15075776 0.034253288
-0.0577179 0.019989137 -0.05775665 -0.013963882 5.50665e-05 0.015987705 0.016211139 0.22797301
0.045633815 0.05784725 0.07145804 -0.044193894 0.061374947 -0.11021607 0.17352092 0.0025310775
0.17885956 0.11198544 0.0062579582 0.14071079 0.13571368 0.046524383 0.1318638 0.12413528
0.14912795 -0.0005595668 -0.0042860517 0.013904915 0.13202384 0.002875059 0.11653617 -0.009882879
0.17368959 0.23087575 0.0092650885 0.11827551 -0.021264005 0.037160564 0.24157332 -0.011737451
0.11744559 0.018593952 0.0065523265 0.11341951 0.018488783 0.011939435 0.07607701 -0.07307042
0.0628532 -0.17812626 -0.03464503 0.19582866 0.11747584 0.2177113 -0.0014047442 0.39233747
-0.19606942 0.040256023 -0.0014329798 0.08645884 0.13887863 0.0035841076 -0.03736349 0.10711152
0.1535991 -0.012973027 0.100534484 -0.006059628 0.41326767 -0.0641351 -0.08978264 0.2266257
-0.006295239 0.0033686948 0.105627365 -0.052722793 -0.08286166 -0.2579115 -0.24531078 -0.001024611
-0.07259893 0.2516671 0.19366394 -0.14166597 -0.107041374 -0.042666774 -0.008238017 -0.0029097241
0.18839173 -0.042513214 -0.09877347 0.005191202 -0.041111473 -0.111468494 0.19030681 0.060734455
0.22708187 -0.1334967 0.15056828 -0.0217291 0.12004461 0.0108643565 0.07233832 0.0307852
-0.0062390086 -0.04268634 -0.039295107 0.14892042 -0.03251626 0.24140847 -0.10448836 -0.12946527
0.043166507 0.02667619 0.081613205 -0.024806889 0.029795425 -0.0098360805 -0.038477395 -0.06630672
0.24124542 -0.02209026 0.19864969 -0.09590874 0.041872744 -0.032276027 -0.103679724 0.018746257
0.28440613 -0.07641669 -0.12455527 -0.053605694 -0.127309 0.0816577 -0.21903673 0.070925616
0.05750343 0.033165403 0.088563 0.22801782 0.07151884 0.0894912 0.0937914 -0.22238559
-0.112025656 0.06466826 -0.06495185 -0.0558263 -0.104791045 0.13333327 -0.0013095275 0.19565026
0.14186676 -0.012040744 -0.014069198 -0.048755594 -0.08954228 0.07368066 0.32360917 -0.088785246
-0.0142000895 -0.19491576 -0.15101297 0.085325204 -0.032892317 0.032395452 0.07860801 0.04026402
-0.20088421 0.17760994 -0.0026134164 -0.06421914 -0.02478579 -0.004300016 -0.1054258 0.037690286
00000000: f9fe 1a3d 596e 153e 182f 7dbd c995 003b
00000010: f98a cbbd 7a0a 8c3d 774b 0ebd acf7 563d
00000020: 7d21 353d 6530 c53d eeef 373b dcae 953d
00000030: 1c7a 503e be73 bbbd c990 9c3e d124 a8bd
00000040: 7bdb 3a3d 771d 9e3d 14f9 843d bf4a f1bd
00000050: 30f6 fcbd 9784 443d 27d0 863e f8ee 3ebd
00000060: 63ac 3cbd 98f8 1b3d 8018 793e dcb0 123d
00000070: 2bed 763c 2432 393e ea28 413e 5a5d a83d
00000080: 9716 df3d ddc6 413d 5685 32be ff56 f9bc
00000090: 72e8 3cbd ec9a c23d 6a6b ef3d fc27 983d
000000a0: 78d3 193e 14f6 523d 875c 58bc 7ee5 ab3d
000000b0: f32d 9f3d cb99 6ebc 980d b6bd c4ab 0e3e
000000c0: 628c 22be eb0a 713e b22e 2e3e b4f2 4f3e
000000d0: 66c8 603c 8846 f0bc d93a 8cbc 6eaf dabc
000000e0: 96b4 833e bd17 b83d cc3d 173e 9ed6 dd3d
000000f0: e985 533e 1dde 133d 45f6 783e 0099 ed3d
00000100: a16e 4b3e 005c 42bd 722e 2d3e 09a5 4f3d
00000110: f717 673d ce4c 9abd a517 483d 1c2b e1bc
00000120: ffbb 9a3d b09d b2bd 7975 9e3d 0a1a 263e
00000130: 504f b43d f310 5bbd 3e60 1a3e 2d4d 0c3d
00000140: 9b69 6cbd 42c0 a33c 3d92 6cbd c4c8 64bc
00000150: 34f7 6638 a6f8 823c 39cd 843c c271 693e
00000160: 86ea 3a3d 3df1 6c3d 9858 923d a804 35bd
00000170: 4c64 7b3d f7b8 e1bd 78af 313e 6fe0 253b
00000180: f626 373e 9f58 e53d 8f0f cd3b 7d16 103e
00000190: 87f8 0a3e 5a90 3e3d 4e07 073e a33a fe3d
000001a0: ffb4 183e e4af 12ba 0272 8cbb 71d1 633c
000001b0: 4231 073e 7c6b 3c3b 84aa ee3d cdeb 21bc
000001c0: afdb 313e b16a 6c3e 99cc 173c 6e3a f23d
000001d0: da31 aebc ad35 183d ff5e 773e 704e 40bc
000001e0: 5087 f03d 5852 983c e6b4 d63b 7d48 e83d
000001f0: ca75 973c 9f9d 433c 43ce 9b3d f2a5 95bd
00000200: 2eb9 803d bb66 36be f2e7 0dbd 4f87 483e
00000210: 2c97 f03d b6ef 5e3e 651f b8ba 75e0 c83e
00000220: 6cc6 48be 80e3 243d d3d2 bbba 5511 b13d
00000230: 3336 0e3e 59e3 6a3b 750a 19bd 495d db3d
00000240: 1549 1d3e d28c 54bc 06e5 cd3d d88f c6bb
00000250: d297 d33e 4359 83bd f6df b7bd 9110 683e
00000260: 4b48 cebb 52c5 5c3b 2953 d83d dbf3 57bd
00000270: 60b3 a9bd fa0c 84be c032 7bbe 3d4c 86ba
00000280: bfae 94bd 83da 803e d74f 463e e210 11be
00000290: 8238 dbbd 5bc3 2ebd bff8 06bc 12b1 3ebb
000002a0: c3e9 403e 5622 2ebd bf49 cabd f51a aa3b
000002b0: 8164 28bd 9849 e4bd cadf 423e b1c4 783d
000002c0: 2688 683e 5cb3 08be 922e 1a3e 3a01 b2bc
000002d0: f3d9 f53d 6a00 323c 1d26 943d 3e31 fc3c
000002e0: 9970 ccbb dfd7 2ebd e8f3 20bd 987e 183e
000002f0: c52f 05bd c833 773e fefd d5bd 8b92 04be
00000300: 5dcf 303d 0688 da3c d324 a73d d137 cbbc
00000310: 8915 f43c 8327 21bc 799a 1dbd d1cb 87bd
00000320: 0a09 773e a2f6 b4bc d36a 4b3e cd6b c4bd
00000330: c182 2b3d de33 04bd 0956 d4bd c091 993c
00000340: ae9d 913e 5b80 9cbd d516 ffbd a591 5bbd
00000350: 4a5d 02be 273c a73d 2a4b 60be 7341 913d
00000360: b788 6b3d 72d8 073d 8560 b53d 817d 693e
00000370: 7878 923d 2a47 b73d b515 c03d 0cb9 63be
00000380: b56d e5bd cb70 843d 7a05 85bd 1eaa 64bd
00000390: b09c d6bd 8488 083e 74a4 abba 8b58 483e
000003a0: 8545 113e 8a46 45bc 7e82 66bc f2b3 47bd
000003b0: f161 b7bd e3e5 963d 1ab0 a53e 0ad5 b5bd
000003c0: 7ea7 68bc ff97 47be 25a3 1abe fbbe ae3d
000003d0: 18ba 06bd 18b1 043d 3dfd a03d e3eb 243d
000003e0: 97b4 4dbe 61df 353e da45 2bbb 5385 83bd
000003f0: 920b cbbc 26e7 8cbb 7be9 d7bd 2161 1a3d
